mnist_net.pth (torch, 180703 bytes, 10 tensors)

conv1.weight f4 [6, 1, 5, 5]
0	0x3e7d712c	0.24750203
1	0x3c0d81f3	0.008636939
2	0xbe4381d6	-0.19092497
3	0x3d961500	0.07328224
4	0x3dd6b26f	0.10483252
5	0xbcf2a741	-0.029620769
6	0x3e4eb66a	0.20186773
7	0xbbc9f1dd	-0.0061628656
8	0x3e08ddf6	0.13365921
9	0xbe5cfade	-0.21580073
10	0xbe291760	-0.16512823
11	0xbc44de47	-0.012015886
12	0xbe374cc9	-0.17900385
13	0xbd7cd78a	-0.06172899
14	0x3dd64476	0.10462277
15	0x3d02e46a	0.031956114
16	0x3e26abf6	0.16276535
17	0x3e01183b	0.126069
18	0x3cc9c45f	0.02462977
19	0x3e1d03f7	0.15333544
20	0xbe1774bb	-0.14790623
21	0x3df0e4ef	0.117624156
22	0x3d8ef9ca	0.06981237
23	0xbe31f7a0	-0.17379618
24	0x3e069875	0.13144095
25	0xbe4581e2	-0.19287828
26	0x3aa46f85	0.0012545442
27	0xbdf25548	-0.11832672
28	0x3e4df5b4	0.2011326
29	0x3e6e2547	0.23256408
30	0x3db0b710	0.086286664
31	0x3e09e505	0.1346627
32	0x3d3f5427	0.046711113
33	0x3ea5418e	0.32276577
34	0x3e0e722f	0.13910745
35	0x3de42db4	0.1114153
36	0xbdb4b697	-0.08823889
37	0x3e6779ba	0.22605029
38	0x3d8902e6	0.06690006
39	0xbd9ea771	-0.07746781
40	0xbe17e6ff	-0.14834212
41	0x3e8e480b	0.2778934
42	0x3eb11d53	0.34592685
43	0xbde01d87	-0.10943132
44	0xbe5f0c2d	-0.21781988
45	0x3e37704f	0.17913936
46	0x3e4be5af	0.19911836
47	0x3e3d3ba9	0.1847979
48	0x3e135c5c	0.14390701
49	0xbe8da59c	-0.27665412
50	0xbe9e166e	-0.30876487
51	0xbd53a71b	-0.051673036
52	0xbe7f3e3f	-0.24926089
53	0xbe3f04a6	-0.18654117
54	0xbc0e8092	-0.008697646
55	0xbe933eb9	-0.2875879
56	0xbdb311e2	-0.08743645
57	0xbe9a58d0	-0.30145884
58	0x3e099397	0.13435207
59	0x3dd066ac	0.10175833
60	0xbe2cc3f8	-0.16871631
61	0xbd3297de	-0.043601863
62	0xbde201de	-0.110355124
63	0x3e974832	0.29547268
64	0x3e886d4a	0.2664588
65	0x3e235ee1	0.15954162
66	0x3e342cff	0.1759529
67	0x3e4bf812	0.1991885
68	0x3e7f9919	0.24960746
69	0x3d433070	0.047653615
70	0xbdc22838	-0.09480327
71	0x3dde53db	0.10855838
72	0x3d9fe6b2	0.078076735
73	0x3e30f90d	0.17282505
74	0x3d8ce652	0.068798676
75	0xbdf80a0d	-0.12111292
76	0xbe11a24e	-0.1422207
77	0xbec36724	-0.38164628
78	0xbdd43c3c	-0.10363051
79	0xbe410980	-0.1885128
80	0xbebae8ad	-0.36505643
81	0xbdcaa7c2	-0.098952785
82	0xbe9b65af	-0.30351016
83	0xbde496d8	-0.11161584
84	0xbec4eafe	-0.38460535
85	0xbe38a298	-0.18030775
86	0xbec7ef9e	-0.3905
87	0xbe713680	-0.23555946
88	0xbea3e793	-0.32012615
89	0xbeda836f	-0.426784
90	0xbeb658f2	-0.35614735
91	0xbeb8a634	-0.36064303
92	0xbe60b9c9	-0.21945871
93	0xbe94846a	-0.29007274
94	0xbe2b6867	-0.16739045
95	0xbe92dd5a	-0.28684503
96	0xbd7a646f	-0.061130937
97	0xbebb105e	-0.36535925
98	0xbe5bdd5d	-0.21471162
99	0xbe13984a	-0.14413562
100	0xbdaea1d6	-0.085269615
101	0x3ec0df5b	0.37670407
102	0x3ebed26f	0.37269923
103	0x3ee0cdc3	0.43906984
104	0x3ed0951b	0.40738758
105	0x3e842f17	0.25817177
106	0x3ef59a19	0.4796913
107	0x3eed6419	0.4636543
108	0x3ecaef23	0.39635572
109	0x3f095f11	0.53660685
110	0x3e1e2e14	0.15447265
111	0xbe3694b9	-0.1783017
112	0x3d7dada7	0.061933186
113	0xbd3414a5	-0.043965
114	0x3e9e07c9	0.30865315
115	0xbdece500	-0.11567116
116	0xbedabc32	-0.42721707
117	0xbeddbf58	-0.43310046
118	0xbed1e4ac	-0.40994775
119	0xbea97c20	-0.33102512
120	0xbefbdec9	-0.4919341
121	0xbee2ff0d	-0.44335213
122	0xbefa50cd	-0.4888977
123	0xbebaab7e	-0.36458963
124	0xbe751c30	-0.23936534
125	0x3db688b4	0.08912793
126	0xbe0f2114	-0.13977462
127	0x3db71437	0.089394026
128	0xbe60ebf2	-0.21965006
129	0xbe4b79b6	-0.19870648
130	0x3e8d9c42	0.27658278
131	0xbe10c20e	-0.14136526
132	0xbe8a03b7	-0.2695596
133	0xbe8c7a87	-0.2743723
134	0x3d936cdc	0.07198498
135	0x3e854074	0.26025736
136	0x3c9d9b8f	0.019239215
137	0xbe5963ff	-0.21229552
138	0xbe2c9653	-0.16854219
139	0xbe16a84b	-0.14712636
140	0x3e286496	0.1644462
141	0x3e03df60	0.1287818
142	0x3e11c565	0.14235456
143	0xbe6a73d6	-0.2289575
144	0xbde59c4c	-0.11211452
145	0x3d85ea0a	0.0653878
146	0x3e93a415	0.28836122
147	0xbd2188ae	-0.03943699
148	0xbd9a5b93	-0.07536998
149	0xbde41a6a	-0.111378506

conv1.bias f4 [6]
0	0x3dce79cb	0.10081824
1	0x3e8ce747	0.275202
2	0xbd53da6a	-0.051721968
3	0x3dc649ef	0.096820705
4	0x3e96df5e	0.2946729
5	0x3e812a0f	0.252274

conv2.weight f4 [16, 6, 5, 5]
0	0xbca0368d	-0.019557262
1	0xbc4382fd	-0.0119330855
2	0x3c9471c3	0.018120652
3	0x3d42ba53	0.047540974
4	0xbcfbe9d4	-0.030751146
5	0xbc49f994	-0.0123275705
6	0xbd753bd6	-0.059871517
7	0xbc37125a	-0.011173809
8	0x3cda225b	0.02662771
9	0x3c61a003	0.01377106
10	0x3ccde01a	0.025131274
11	0x3d638420	0.055545926
12	0x3dcc5a81	0.099782
13	0x3d277e2e	0.04089182
14	0x3c35c62e	0.011094613
15	0x3cbf4a33	0.02335081
16	0xbd1bf06a	-0.038071074
17	0x3d1b0dd0	0.03785497
18	0x3bcd0a88	0.006257359
19	0x3da488b3	0.08033886
20	0x3d77f20c	0.06053357
21	0x3d8d305d	0.0689399
22	0xbd82efad	-0.06393371
23	0xbbd700cf	-0.0065613757
24	0x3d130f24	0.03590311
25	0x3de32992	0.11091913
26	0x3db1cf82	0.08682157
27	0x3db56d4f	0.088587396
28	0x3b2b0f2d	0.0026101575
29	0xbd01d0bf	-0.031693216
30	0x3d772ba3	0.06034435
31	0x3dc9a369	0.09845621
32	0x3d703db3	0.05865259
33	0x3d4f7626	0.050649785
34	0x3cea65e4	0.028613038
35	0xbcda4f0a	-0.026649017
36	0xbcb5a8c3	-0.022175198
37	0xbdc3c487	-0.09558969
38	0x3c8aee8e	0.016959455
39	0xbd0a8f1c	-0.033827886
40	0xbb3bd202	-0.002865911
41	0x3d0dda02	0.034631737
42	0xbcf6f413	-0.03014568
43	0x3d9c21f4	0.076236635
44	0xbd19336f	-0.037402567
45	0xbd1b2ba0	-0.0378834
46	0x3d7e3329	0.06206051
47	0x3da0b04e	0.078461275
48	0xbd9eb3ee	-0.077491626
49	0xbd20afc4	-0.039230123
50	0xbc12b98b	-0.00895537
51	0x3d25fa79	0.040522072
52	0x3aa7f7b6	0.0012814912
53	0xbd81cdea	-0.06338103
54	0x3d817bbc	0.063224286
55	0x3dc14f2c	0.09438929
56	0xbcf40730	-0.029788584
57	0xbde68e6f	-0.11257636
58	0xbdad4919	-0.08461208
59	0xbdca5afd	-0.09880636
60	0xbcbf90c0	-0.023384452
61	0xbd91de30	-0.07122457
62	0xbd954eaf	-0.07290398
63	0xbd413181	-0.04716635
64	0xbcecadf0	-0.028891534
65	0xbc15e3d0	-0.009148553
66	0x3d1b813e	0.03796505
67	0x3cf7601c	0.030197196
68	0xbd0011c5	-0.031266946
69	0x3d45006e	0.048096113
70	0x3d2095af	0.03920525
71	0xbaf99d68	-0.0019044103
72	0x3c4dc27e	0.012558578
73	0x3cbbfcb1	0.022947641
74	0xbd9cfd78	-0.07665533
75	0x3d84c859	0.06483526
76	0xbda48ebc	-0.08035037
77	0x3d0b0312	0.033938475
78	0xbd19c91d	-0.037545312
79	0xbd739156	-0.059464775
80	0x3bde22fc	0.006779073
81	0xbdb38591	-0.0876571
82	0x3c754b24	0.014971528
83	0x3d105d1d	0.03524505
84	0xbcea32a1	-0.028588595
85	0x3cdb2890	0.02675274
86	0xbcb95230	-0.022622198
87	0x3b589368	0.0033046845
88	0xbc8b9c99	-0.017042445
89	0x3d4308d5	0.047615845
90	0xbcdc82b1	-0.026917787
91	0xbd7b7cb9	-0.06139824
92	0xbc4726dc	-0.012155261
93	0xbabc51ba	-0.0014367618
94	0x3c191827	0.009344137
95	0x3d6735d9	0.056447838
96	0xbbcdad4d	-0.0062767626
97	0x3dbf26e0	0.09333587
98	0xbcf8a2b8	-0.030351028
99	0x3da65e93	0.08123507
100	0xbc510143	-0.0127566485
101	0x3dcd6265	0.10028533
102	0x3e5aad9a	0.21355286
103	0x3e6ea169	0.2330376
104	0x3dd96189	0.106143065
105	0xbc8b31cf	-0.016991524
106	0x3dc24734	0.09486237
107	0xbc9571b8	-0.018242702
108	0xbb343d08	-0.0027502198
109	0x3df66740	0.12031412
110	0x3e418219	0.18897285
111	0x3e2e45a1	0.17018749
112	0xbc119402	-0.0088853855
113	0xbdbd7286	-0.09250359
114	0xbd8fcce1	-0.070214994
115	0x3d8784bc	0.06617114
116	0x3c14d6bb	0.009084399
117	0x3d9331b5	0.07187215
118	0xbd1ab332	-0.03776855
119	0x3a4c1441	0.00077850005
120	0xbd87e3e0	-0.066352606
121	0xba94ac8c	-0.0011342927
122	0x3c821a15	0.015881578
123	0x3d35061c	0.04419528
124	0xbc5f4567	-0.013627387
125	0x3d14fdcb	0.03637485
126	0xbc3dfc8a	-0.011595855
127	0x3c19b9ce	0.009382678
128	0xbcba901c	-0.022773795
129	0x3d896161	0.06708027
130	0x3d6c29f5	0.0576572
131	0xbd23203a	-0.039825656
132	0x3db74226	0.08948164
133	0x3b49bbe5	0.003078216
134	0xbda62281	-0.0811205
135	0x3cbc9877	0.02302192
136	0xbd1fae35	-0.038984496
137	0x3de396a7	0.11112719
138	0x3dcf73d4	0.10129514
139	0x3c7a57b5	0.0152797
140	0x3b0feae0	0.0021960065
141	0xbd4c44da	-0.04987035
142	0x3d18c01b	0.03729258
143	0x3de40045	0.11132864
144	0x3d5198a3	0.051170956
145	0xba037b88	-0.0005015661
146	0xbc975708	-0.018474117
147	0xbd8ad916	-0.06779687
148	0xbd07d041	-0.03315759
149	0x3d885b64	0.066580564
150	0xbb1d8912	-0.0024038
151	0x3da942cc	0.082646936
152	0xbd954498	-0.07288474
153	0x3c629259	0.013828837
154	0xbb36287f	-0.0027795134
155	0xbd7d273a	-0.061804987
156	0x3da5cf82	0.080962196
157	0x3c1b1d1e	0.009467391
158	0x3c17c3a1	0.00926295
159	0xbc62efb6	-0.013851097
160	0x3da10ed3	0.078641556
161	0xbd01103b	-0.03150962
162	0xbc84bb84	-0.016202696
163	0x3c8463a2	0.01616079
164	0x3d5f1e0b	0.05447201
165	0x3cae6f61	0.021293344
166	0x3cf0b862	0.029384796
167	0xbd40c5e6	-0.04706373
168	0xbd450540	-0.04810071
169	0xbd974cd0	-0.07387698
170	0x3d2e17f4	0.042503312
171	0x3d966ef7	0.073453836
172	0x3d6e8d19	0.05824003
173	0x3d88a427	0.066719346
174	0xbd1bc5aa	-0.038030304
175	0xbd9df474	-0.07712641
176	0xbda8be37	-0.082394056
177	0x3d8dadea	0.06917937
178	0x3dbbef55	0.09176508
179	0xbca4e880	-0.020130396
180	0xbc1797f9	-0.009252542
181	0x3cd8a3c2	0.026445273
182	0x3cf5f48e	0.03002384
183	0xbca998a6	-0.020702671
184	0xbd78dc35	-0.06075688
185	0x3d2cb7e3	0.042167556
186	0x3dc64380	0.09680843
187	0x3df4d920	0.11955476
188	0x3da00918	0.078142345
189	0xbcc17b85	-0.023618469
190	0x3db752a9	0.08951313
191	0x3d83e3c0	0.06439924
192	0x3cb77778	0.022395834
193	0x3daad781	0.08341885
194	0xbd4a2ab0	-0.049357116
195	0x3e129dc1	0.14317991
196	0x3c1c30fd	0.009533164
197	0xbc090c5e	-0.008364765
198	0x3d781c6e	0.060573988
199	0xba26acda	-0.00063581544
200	0xbd533cfc	-0.05157183
201	0xbbf541a2	-0.0074846307
202	0x3dc5577d	0.09635828
203	0xbd696cbc	-0.056988463
204	0xbd9b4d6e	-0.07583128
205	0xbd1d9ae7	-0.038477805
206	0x3cd43fc2	0.025909308
207	0x3cd4b808	0.02596666
208	0xbd02a3c3	-0.031894457
209	0x3cdf850f	0.027285127
210	0xba34d885	-0.0006898719
211	0x3e07734a	0.13227573
212	0x3d2c7c93	0.04211099
213	0x3cacfcb1	0.021116586
214	0x3d357bfc	0.044307694
215	0x3d434a52	0.0476783
216	0x3df8a8fa	0.12141605
217	0x3cf36693	0.029711997
218	0x3db404cd	0.08789978
219	0xbd530540	-0.05151868
220	0x3cdf8e17	0.027289433
221	0xbcc420ef	-0.023941485
222	0x3d4ec605	0.050481815
223	0xbd4c9414	-0.049945906
224	0xbd1be881	-0.03806353
225	0xbc67efcb	-0.014156292
226	0xbc79a870	-0.015237913
227	0xbc4679ce	-0.012114001
228	0x3cdd339f	0.027002154
229	0x3d4a5cc9	0.049404893
230	0x3d95f58b	0.07322224
231	0x3cc58b4c	0.024114273
232	0xbd8dcbc7	-0.06923633
233	0xbce22edb	-0.027610233
234	0x3df7b24d	0.12094555
235	0x3e0542fa	0.13013831
236	0xbd66c0a4	-0.05633606
237	0xbd8f0c6f	-0.069847934
238	0xbda548df	-0.0807054
239	0x3e00144a	0.1250774
240	0xbda47255	-0.080296196
241	0xbdeb40d8	-0.11486977
242	0xbe2a3d4a	-0.16624942
243	0x3d7f41bc	0.06231855
244	0x3e16d24d	0.14728661
245	0xbdd3742f	-0.10324895
246	0xbe01bbe5	-0.12669332
247	0xbd9b0f6b	-0.075713
248	0x3bc2af53	0.0059413104
249	0x3da3055c	0.079600066
250	0x3d246f27	0.040145066
251	0xbd4513d2	-0.048114605
252	0xbe0bcb3e	-0.1365175
253	0xbd92ed5d	-0.0717418
254	0xbda816ac	-0.08207449
255	0x3c1d50c2	0.009601774

conv2.bias f4 [16]
0	0x3c771393	0.01508035
1	0x3d3bb9cf	0.045831498
2	0x3dcdf7fd	0.10057066
3	0xbd10e779	-0.035377
4	0x3ce9d40b	0.028543493
5	0x3d2f68fb	0.042824727
6	0x3dadc2c6	0.08484416
7	0x3bf1be2a	0.0073774057
8	0xbd73030c	-0.059329078
9	0xbd8e8924	-0.06959751
10	0x3da43945	0.08018736
11	0xbcdf5f79	-0.027267205
12	0xbd4ebaf4	-0.05047126
13	0xbbf06d07	-0.007337216
14	0x3d29c16e	0.041444235
15	0x3d000f11	0.03126437

fc1.weight f4 [128, 256]
0	0x3c872d50	0.016501099
1	0x3d80b63f	0.06284761
2	0x3d1fbdd7	0.038999405
3	0xbd260ccd	-0.04053955
4	0xbbfc1417	-0.0076928246
5	0x3c77cb8f	0.015124216
6	0xbd49ba99	-0.04925022
7	0x3c85c65c	0.016329937
8	0x3c16f0d9	0.009212696
9	0x3d7677ea	0.060172953
10	0xbcd99d89	-0.026564376
11	0xbcf78b12	-0.030217681
12	0xbcafabcb	-0.021444222
13	0xbca2fc3c	-0.019895665
14	0xbbb42a25	-0.005498188
15	0x3cfed9a3	0.031109637
16	0x3bc309ab	0.0059520802
17	0x3d3dc650	0.046331704
18	0x3a9ab500	0.001180321
19	0xbd89d974	-0.06730929
20	0x3d06dac7	0.032923486
21	0xbd57fb6b	-0.052730005
22	0xbcb485e1	-0.022036495
23	0xbd918a84	-0.07106498
24	0xbd08218a	-0.03323511
25	0x3c6b21c5	0.014351313
26	0x3d755e27	0.059904244
27	0x3d12165a	0.035665847
28	0x3cc015c5	0.02344788
29	0xbc513aff	-0.012770413
30	0x3ca6ed16	0.020376723
31	0x3d88c2db	0.06677791
32	0xbb57092f	-0.003281187
33	0xbda5723a	-0.080784276
34	0xbdca17e4	-0.09867838
35	0xbd15a2cd	-0.036532212
36	0x3d2eab73	0.042643975
37	0xbd03a016	-0.03213509
38	0xbd075bb1	-0.033046428
39	0x3d47cfb4	0.048782066
40	0xbcec577a	-0.028850306
41	0x3d8196cd	0.06327591
42	0x3d10a608	0.03531459
43	0xbd4631ea	-0.048387446
44	0xba52a263	-0.0008035062
45	0x3b5aeb97	0.0033404583
46	0xbd03ca18	-0.032175153
47	0xbbe04035	-0.0068435916
48	0x3d25535c	0.0403627
49	0xbd09a357	-0.03360304
50	0xbd4aac49	-0.04948071
51	0x3c76d4f0	0.015065417
52	0xbd49c981	-0.049264435
53	0x3d15dc9c	0.036587343
54	0xbcbefde0	-0.023314416
55	0x3d4f382e	0.050590687
56	0x3d625913	0.05526073
57	0x3d697fdc	0.0570067
58	0x3d6c2d93	0.05766065
59	0x3c379cba	0.0112068
60	0xbc4895c3	-0.012242737
61	0xbcfc3bd6	-0.03079025
62	0xbc90f7d3	-0.017696297
63	0x3c835044	0.016029485
64	0x3d21c75b	0.03949676
65	0xbba54ade	-0.0050443253
66	0xbd2b6a92	-0.04184968
67	0x3cb4ab29	0.022054272
68	0xbd3a207a	-0.04544113
69	0x3cdb321f	0.026757298
70	0x3d574fbb	0.05256627
71	0xbd8e9d4d	-0.069635965
72	0xbd988bf0	-0.07448566
73	0x3d3b14eb	0.045674246
74	0x399c7e26	0.00029848627
75	0x3c058e03	0.008151534
76	0xbc625871	-0.013815031
77	0xbc9f3076	-0.019432288
78	0xbd2b20a1	-0.041779164
79	0xb9334ddc	-0.00017099775
80	0xbd109821	-0.03530133
81	0xbacc829e	-0.0015602892
82	0xbd6d9e8a	-0.058012523
83	0xbd70e829	-0.058815155
84	0xbd62f4e9	-0.055409346
85	0xbd64a340	-0.05581975
86	0xbcb19e13	-0.021681821
87	0x3d1a4b06	0.037669204
88	0xbd224c14	-0.039623335
89	0x3c623a4e	0.013807846
90	0xbcece7a9	-0.028919058
91	0xbc977518	-0.018488452
92	0xbc03435f	-0.008011668
93	0xbd6af7d4	-0.057365254
94	0x3d0bfeef	0.03417867
95	0x3d02e0e1	0.031952742
96	0xbc01f910	-0.007932916
97	0x3c93a938	0.018025026
98	0xbc8d4638	-0.017245397
99	0xbc7dd74d	-0.015493226
100	0x3d2bd394	0.041949823
101	0x3cdb88a4	0.026798554
102	0x3b8d7c6e	0.0043178117
103	0xbadb01ce	-0.0016708912
104	0x3c1a5d7b	0.009421702
105	0xbb2c2d89	-0.0026272258
106	0xbd23bd16	-0.03997525
107	0x39412ff0	0.00018423772
108	0x3d3f306f	0.04667705
109	0xbba89571	-0.005144768
110	0xbd26bbc5	-0.040706415
111	0xbcaa9936	-0.02082501
112	0xbb03b9d1	-0.002009977
113	0x3cb9e334	0.022691347
114	0xbc6057ca	-0.013692806
115	0x3a9c4d7d	0.0011924949
116	0xbca62f87	-0.020286335
117	0x3ce41f56	0.027846973
118	0xb9341f32	-0.00017177759
119	0x3c821c4a	0.01588263
120	0x3c84c3a7	0.016206576
121	0x3d059d74	0.032620862
122	0x3c8b190c	0.016979717
123	0xbd23b99d	-0.039971936
124	0x3d612c66	0.054973982
125	0xbb8b5b9d	-0.0042528645
126	0x3d260949	0.0405362
127	0x3d5a8a2d	0.05335443
128	0x3b90c880	0.0044184327
129	0xbd90d89d	-0.07072566
130	0x3d6b9ac6	0.05752065
131	0x3d19da3f	0.03756165
132	0x3d381f76	0.04495188
133	0x3cd1520f	0.025551824
134	0x3d849c24	0.06475094
135	0x3d03e05d	0.03219639
136	0x3d45b39b	0.04826699
137	0xbc915809	-0.017742174
138	0xbcbb1df0	-0.022841424
139	0x3d085ba1	0.03329051
140	0x3c339475	0.010960688
141	0x3bb07bf7	0.0053858715
142	0xbd28d1af	-0.041215595
143	0x3cbfa0ca	0.0233921
144	0xbca3b4e0	-0.019983709
145	0xbd5dac34	-0.054119304
146	0x3c6f589f	0.014608531
147	0xbcd34551	-0.025789889
148	0xbbe61b13	-0.0070222705
149	0xbd50a438	-0.05093786
150	0x3d230ced	0.03980725
151	0xbb4ba49b	-0.0031073454
152	0xbd42e7f6	-0.047584496
153	0x3d044407	0.03229144
154	0x3d1e70bc	0.03868173
155	0xbd4391bc	-0.047746405
156	0xbd27d1c6	-0.04097154
157	0x3b15b622	0.0022844155
158	0xbc425888	-0.011861928
159	0x3d1f6788	0.038917094
160	0xbbe5fe69	-0.0070188534
161	0x3cb1fab9	0.021726
162	0x3b8d3161	0.004308865
163	0x3d5e37fa	0.054252602
164	0xb882280e	-6.206344e-05
165	0xbc5b9c31	-0.013403938
166	0xbccbfa20	-0.024899542
167	0x3d5b11d4	0.0534838
168	0xbc2df623	-0.010617766
169	0x3d330763	0.043708216
170	0x3cace70c	0.021106265
171	0x3ca7a935	0.020466426
172	0xbb84a3b3	-0.004047835
173	0x3cfabc21	0.030607285
174	0x3cdb518d	0.026772285
175	0xbd292cd1	-0.041302506
176	0xbd0d25b9	-0.034459803
177	0xbcee6274	-0.02909968
178	0x3d4e0122	0.05029405
179	0x3b5bf0a7	0.0033560188
180	0xbd119c66	-0.035549544
181	0x3d426bb3	0.04746599
182	0xbca1c62b	-0.019747814
183	0x3c6e530f	0.01454617
184	0x3d98edff	0.07467269
185	0x3d74fce5	0.05981149
186	0xbc97035f	-0.018434225
187	0xbc16bee5	-0.009200786
188	0xbbbe0540	-0.0057989657
189	0x3cf9bcf3	0.030485606
190	0x3cab40a9	0.020904856
191	0x3c77811f	0.015106468
192	0xbd5769b4	-0.05259104
193	0x3cfc3d42	0.030790929
194	0x3c434f17	0.011920712
195	0xbce758c0	-0.028240561
196	0x3d00daeb	0.031458776
197	0xbd565eb0	-0.052336395
198	0xbc3154e8	-0.010823466
199	0x3d373218	0.044725507
200	0xbab789b5	-0.0014002832
201	0x3d993b6c	0.07482037
202	0x3cd60b84	0.026128538
203	0xbd9bb72f	-0.07603299
204	0x3d14d6d8	0.036337703
205	0x3ccd549f	0.025064765
206	0xbdb985d8	-0.09058732
207	0x3a158941	0.00057043514
208	0xbbce5365	-0.0062965625
209	0x3d968d86	0.07351212
210	0x3d81ff85	0.063475646
211	0xbc878dc4	-0.016547091
212	0x3b8966c2	0.004193158
213	0x3a9d126e	0.0011983642
214	0xbd89368e	-0.066998586
215	0x3cfe7ca6	0.031065296
216	0xbc204762	-0.009782644
217	0xbd34fd19	-0.044186685
218	0xbc6b86c7	-0.014375395
219	0xba063a81	-0.0005120412
220	0x3d9f6070	0.07782066
221	0xbad5417d	-0.0016270127
222	0xbd0b2379	-0.033969376
223	0x3d24f54e	0.040273003
224	0x3cb322a4	0.021867104
225	0x3d539888	0.051659137
226	0x3cb23a40	0.021756291
227	0xbccd9206	-0.025094043
228	0x3d5ee49c	0.054417238
229	0x3cb3c059	0.021942304
230	0x3d15ae91	0.036543433
231	0xbd34bbac	-0.04412429
232	0x3d2e44ab	0.042545956
233	0xbcda1fa3	-0.026626414
234	0x3ae7bcfd	0.0017680224
235	0xbd13534c	-0.03596811
236	0x3c1493d0	0.009068444
237	0xbc91d3af	-0.017801134
238	0x3d277b5d	0.040889133
239	0x3d391ff3	0.045196485
240	0xbc932c2b	-0.017965397
241	0x3d344fa5	0.044021267
242	0x3d806ff2	0.06271352
243	0xbd41a315	-0.047274668
244	0x3d80b97a	0.06285377
245	0x3d6e92ad	0.05824535
246	0xbd49bd0e	-0.049252562
247	0xbcbc4b37	-0.022985084
248	0xbd17d6e0	-0.037070155
249	0x3c282cbc	0.010264572
250	0xbd46fbd6	-0.048580013
251	0x3d48e181	0.049043182
252	0x3cf87c75	0.030332783
253	0x3d55a3f2	0.052158304
254	0xbcd4dbf9	-0.025983797
255	0x3d0e19c9	0.03469256

fc1.bias f4 [128]
0	0xbbc88430	-0.0061192736
1	0xbd1ba9ce	-0.038003735
2	0xbd2a828f	-0.041628417
3	0xbcc16287	-0.023606552
4	0x3d1e2d20	0.038617253
5	0x3ccae326	0.024766516
6	0xb8a720bc	-7.969278e-05
7	0x3b9de356	0.0048183603
8	0xbd085942	-0.033288248
9	0x3cff818d	0.031189704
10	0x3c25c41a	0.010117555
11	0xbd383969	-0.044976626
12	0x3d56bddf	0.05242717
13	0x3b955b7a	0.004558024
14	0xbd26a09a	-0.040680505
15	0xbd3c85df	-0.046026107
16	0x3c9ee254	0.019395031
17	0xbc997367	-0.018731786
18	0xbcfa2129	-0.03053339
19	0x3ce647ee	0.02811047
20	0x3b3ead0d	0.0029094846
21	0x3d43daca	0.047816075
22	0xbcb3cda0	-0.021948636
23	0x3cedfd62	0.029051486
24	0xbd679a68	-0.056543738
25	0xbd44eb55	-0.048075993
26	0x3d469423	0.048481118
27	0x3d52f511	0.051503245
28	0xbd4b47ee	-0.049629144
29	0x3cf1039d	0.029420668
30	0xbd4ec9ca	-0.05048541
31	0x3cdb1979	0.026745545
32	0xbd449f39	-0.04800341
33	0xbc04bdd8	-0.008101903
34	0x3d31ee94	0.043440416
35	0x3cb246ee	0.021762338
36	0x3caeb151	0.021324785
37	0xbca228b0	-0.019794792
38	0x3d88db36	0.06682436
39	0x3d3d1871	0.046165887
40	0x3d3afe42	0.045652635
41	0xbd4b3da4	-0.049619332
42	0x3d61656f	0.055028375
43	0x3d804816	0.06263749
44	0xbd044bc3	-0.032298815
45	0xbd3b2a38	-0.04569456
46	0x3d020750	0.031745255
47	0x3c93c746	0.018039357
48	0x3d29f25c	0.041490898
49	0xbd17ee3e	-0.03709244
50	0x3d112b4d	0.035441685
51	0x3d111d58	0.035428375
52	0x3d677e3a	0.056516863
53	0x3b817f9f	0.003951981
54	0x3d850fdb	0.06497165
55	0x3c86329a	0.01638155
56	0x3d69c859	0.057075832
57	0xbd1c4fb6	-0.038161956
58	0x3d07ab94	0.033122614
59	0xbd3fb7ff	-0.04680633
60	0x3b956a0e	0.004559762
61	0x3d4d3169	0.05009595
62	0xbb91cd30	-0.004449509
63	0x3c1a5119	0.009418749
64	0x3d6f29f7	0.05838963
65	0xbd614fd6	-0.055007778
66	0x3d838dfc	0.06423566
67	0xbc318955	-0.010835965
68	0x3c633b11	0.013869063
69	0xbc4c8488	-0.01248277
70	0xbb9e493a	-0.0048305066
71	0xbcda2f16	-0.02663378
72	0xbd3103c7	-0.043216493
73	0x3d8c1b4d	0.06841145
74	0x3d5d5dd7	0.05404457
75	0xbd024b6b	-0.031810205
76	0x3cbfdad0	0.023419768
77	0x3b48fc84	0.003066809
78	0xbd2eafa6	-0.04264798
79	0xbc42410e	-0.011856331
80	0x3b5e7f86	0.0033950522
81	0xbd6848f6	-0.056710206
82	0x3beced1f	0.0072304155
83	0xbd69c577	-0.057073083
84	0x3d1913f0	0.03737253
85	0xbc12935d	-0.008946267
86	0xbd568eb2	-0.05238218
87	0xbd118891	-0.03553063
88	0xbbace861	-0.005276725
89	0xbce89ea0	-0.02839595
90	0xbc87afcf	-0.016563324
91	0xbd227ca2	-0.03966964
92	0xbd0a1911	-0.03371531
93	0xbc637695	-0.013883253
94	0xbc6bbc86	-0.014388209
95	0x3d435fb0	0.047698677
96	0xbd07811a	-0.033082105
97	0x3c937288	0.017998949
98	0xb938952d	-0.0001760318
99	0x3d501571	0.050801698
100	0x3c47e8cf	0.012201502
101	0xbd7778fa	-0.060418107
102	0xbd350957	-0.04419836
103	0xbd823dc0	-0.06359434
104	0xbd6297b1	-0.055320445
105	0xbd72bacb	-0.05926017
106	0xbd3b21a2	-0.04568637
107	0x3c7b99b1	0.015356467
108	0xbd1650ad	-0.036698032
109	0xbd695f08	-0.056975394
110	0x3d8bc025	0.06823758
111	0xbd654d8f	-0.05598217
112	0xbd3a3e9b	-0.04546986
113	0xbc84d026	-0.016212534
114	0x3c6a8c0d	0.014315617
115	0xbcd6edfd	-0.026236529
116	0x3d7e84ee	0.06213849
117	0xbc83b751	-0.016078623
118	0x3d5b7cb3	0.05358572
119	0x3b59a158	0.003320774
120	0x3cc23218	0.023705527
121	0x3cd6378d	0.026149536
122	0x3cde9e8e	0.027175214
123	0x3d0a0aed	0.033701826
124	0x3b553aee	0.0032536346
125	0xbcadfab3	-0.021237707
126	0xbc952860	-0.018207729
127	0x3d6d5da7	0.057950642

fc2.weight f4 [64, 128]
0	0x3cde8836	0.02716456
1	0x3d9df3ee	0.077125415
2	0xbd614557	-0.05499777
3	0xbc01e4d7	-0.007928095
4	0xbd820f5f	-0.06350588
5	0xbd586d2a	-0.052838482
6	0xbd2ce1fd	-0.042207707
7	0x3d0cc15a	0.034364082
8	0x3c8c9162	0.017159168
9	0xbdae4e51	-0.085110314
10	0x3d27b734	0.0409462
11	0x3b8c7edc	0.0042875838
12	0x3cda64af	0.026659338
13	0xbd91c4c9	-0.07117612
14	0xbda6c60a	-0.08143242
15	0xbc2a0891	-0.010378019
16	0x3dac752e	0.08420788
17	0x3ce50416	0.02795605
18	0xbd2a162e	-0.04152506
19	0xbda7123b	-0.08157774
20	0xbd2bba2d	-0.041925598
21	0x3da93d15	0.082636036
22	0xbd51dbe4	-0.051235095
23	0xbd854e64	-0.065090925
24	0x3ba24b1c	0.0049528014
25	0x3d922315	0.071355976
26	0x3d1966fd	0.037451733
27	0xbc3d37dd	-0.011548963
28	0xbd7ff692	-0.062491007
29	0xbc6f168f	-0.014592781
30	0x3d9a5b05	0.07536892
31	0xbdb095bc	-0.086223096
32	0x3d8c9c08	0.06865698
33	0x3c3e97c8	0.011632867
34	0xbd9c2529	-0.07624275
35	0xbd8ee0c0	-0.069764614
36	0x3ae8e126	0.0017767295
37	0xbda6f7a6	-0.08152704
38	0x3ccf5a6b	0.02531167
39	0x3d6506dd	0.05591475
40	0xbc23c5fb	-0.009995933
41	0x3d239ad9	0.039942596
42	0xbcb1c7b6	-0.021701675
43	0xbd076657	-0.033056583
44	0xbd82cca6	-0.0638669
45	0x3d885685	0.06657127
46	0x3d6576f9	0.056021664
47	0x3d8283c4	0.063727885
48	0x3ce5c502	0.028048042
49	0xbca09f08	-0.019607082
50	0x3c3412b5	0.010990788
51	0x3d0dbb51	0.034602467
52	0x3acf7c6a	0.0015829925
53	0x3d6cc223	0.05780233
54	0x3d65c15a	0.056092598
55	0x3da09b01	0.07842065
56	0x3daae98a	0.08345325
57	0xbda59678	-0.0808534
58	0x3ccc76ed	0.024959052
59	0x3d7d104c	0.06178312
60	0xbd84a366	-0.06476478
61	0x3da51abc	0.0806174
62	0xbc7612a4	-0.015019093
63	0x3d72b025	0.059250016
64	0x3c38ca8c	0.01127876
65	0x3cdb8a81	0.026799442
66	0x3d054c8e	0.03254371
67	0xbd9ad003	-0.07559206
68	0x3d96d1c6	0.0736423
69	0x3d1b3687	0.0378938
70	0xbd83eaa1	-0.06441236
71	0xbb3aec0b	-0.002852204
72	0x3c8df8dc	0.01733058
73	0xbd31bd99	-0.043393705
74	0xbda5322d	-0.08066211
75	0x3d5e682d	0.05429857
76	0xbd8314d5	-0.06400458
77	0x3d4d9674	0.05019231
78	0x3c27beed	0.010238391
79	0x3d589471	0.05287594
80	0xbd1dc960	-0.038522124
81	0x3da600ee	0.08105646
82	0x3da11315	0.07864968
83	0xbd10d64b	-0.035360616
84	0xbc7fd950	-0.015615776
85	0xbd7b39c5	-0.06133439
86	0xbda53874	-0.08067408
87	0xbd1f898b	-0.03894953
88	0xbd551d13	-0.05202968
89	0xbce7a8af	-0.028278677
90	0x3dac22dc	0.084050864
91	0xbc8a9435	-0.016916374
92	0xbd538b8b	-0.05164675
93	0x3bd30909	0.006440286
94	0xbd89c6fe	-0.06727408
95	0x3d7107c9	0.058845315
96	0xbd2604d9	-0.040531967
97	0x3d7a3373	0.061084222
98	0x3cb1124a	0.021615166
99	0x3c1e1572	0.009648668
100	0xbd8bc2c0	-0.06824255
101	0xbd0432b7	-0.032274928
102	0x3d422577	0.04739901
103	0xbd6f2e8a	-0.058393992
104	0xbd59202b	-0.053009193
105	0x3d5e2eaf	0.05424374
106	0xbd926e88	-0.071499884
107	0xbd35e71a	-0.04440985
108	0xbd7c30e5	-0.061570067
109	0xbd645f1f	-0.055754777
110	0x3c766f20	0.015041143
111	0x3d853fff	0.06506347
112	0x3d16828f	0.036745604
113	0xbd98e77e	-0.07466029
114	0xbd528803	-0.051399242
115	0x3d16b827	0.036796715
116	0x3d4bcbb6	0.04975482
117	0xbd99f56d	-0.075175144
118	0xbdad4b33	-0.08461609
119	0xbd08e532	-0.033421703
120	0xbccf0c3f	-0.025274394
121	0x3d3d4823	0.046211373
122	0xbd5316d7	-0.051535454
123	0xbd42cd04	-0.0475588
124	0xbc037e56	-0.008025726
125	0xbd040104	-0.03222753
126	0xbd2a906a	-0.04164163
127	0xbd3053f6	-0.04304882
128	0x3d1a3c0c	0.03765492
129	0xbd16f88e	-0.036858134
130	0xbd5d9d20	-0.054104924
131	0x3d0761eb	0.033052366
132	0xbd09e8eb	-0.033669394
133	0x3bd6847e	0.006546556
134	0xbcbb33b1	-0.022851797
135	0x3d81661f	0.06318306
136	0xbd0c67b8	-0.0342786
137	0xbd13b911	-0.036065165
138	0xbda07783	-0.07835295
139	0xbcc7f6a4	-0.0244096
140	0xbda0e331	-0.07855833
141	0x3d9e8853	0.077408455
142	0xbd887fcc	-0.06665
143	0x3cd90bdd	0.026494915
144	0x3d86021b	0.0654337
145	0x3ca8f464	0.020624347
146	0x3d9cd246	0.07657294
147	0xbd80b27b	-0.062840424
148	0x3db4816f	0.0881375
149	0x3d8f31bc	0.06991908
150	0x3a85f99f	0.0010221488
151	0xbda2ca43	-0.079487346
152	0x3b0975e3	0.0020974807
153	0xbd693161	-0.056931857
154	0xbcba2cbd	-0.022726411
155	0x3b5d5c39	0.0033776893
156	0x3d07af4a	0.033126153
157	0x3968fd15	0.00022219525
158	0x3d989e9f	0.074521296
159	0xbccf8b9c	-0.025335126
160	0x3d77f7be	0.060539
161	0x3bbc89a5	0.005753713
162	0x3d5192c3	0.051165354
163	0xbd7fd2ef	-0.06245702
164	0x3ce25b54	0.02763144
165	0xbd7a982f	-0.06118029
166	0xbd8b9ecf	-0.068174
167	0xbd50093a	-0.05079005
168	0xbcaded18	-0.02123122
169	0x3d931ff7	0.07183831
170	0x3d54826e	0.0518822
171	0xbda1c502	-0.078989044
172	0x3db055e1	0.0861013
173	0x3d6e6610	0.058202803
174	0xbd8d7570	-0.06907165
175	0x3d764db9	0.060132716
176	0x3d80282a	0.06257661
177	0xbce7f25a	-0.028313804
178	0xbd6fdafe	-0.058558457
179	0x3daf528b	0.08560666
180	0x3ceaf2d7	0.028680248
181	0xbd77947b	-0.060444336
182	0xbcf9dd63	-0.030501073
183	0xbd92f850	-0.07176268
184	0x3d17f22c	0.037096187
185	0xbcb1bea0	-0.021697342
186	0x3da0895f	0.078387015
187	0x3d3d24fb	0.046177845
188	0x3d8deaec	0.069295734
189	0xbd4a107e	-0.049332134
190	0xbce8dac8	-0.028424636
191	0xbd9f82b7	-0.07788604
192	0xbc76118c	-0.015018832
193	0xbda922ce	-0.082585916
194	0xbdac48eb	-0.084123455
195	0xbd7354b7	-0.059406962
196	0x3d16b567	0.036794093
197	0xbc23670c	-0.009973299
198	0xbc0dbd5e	-0.008651106
199	0xbccebfbd	-0.025237912
200	0xbd8d9ec6	-0.06915049
201	0xbc773555	-0.015088399
202	0x3c136475	0.008996119
203	0xbd815e10	-0.06316769
204	0xbb87d256	-0.004144947
205	0x3c433ef2	0.011916863
206	0x3d23e624	0.0400144
207	0xbc998bda	-0.018743444
208	0xbdb03bfd	-0.08605192
209	0xbc30646a	-0.010766128
210	0xbcdca659	-0.02693479
211	0xbd3a6062	-0.045502074
212	0x3d0ae59f	0.03391039
213	0x3a07a1dc	0.000517396
214	0x3db30f50	0.08743155
215	0x3daceab6	0.08443205
216	0x3d658c3d	0.056041945
217	0xbd385a3e	-0.045007937
218	0x3d4781b7	0.04870769
219	0xbd0fd6bf	-0.035116907
220	0x3d1ce28b	0.038301986
221	0xbdb37745	-0.08762983
222	0xbd80adb1	-0.06283129
223	0xbc8eb241	-0.017418982
224	0x3ca0846d	0.019594396
225	0x3d9b855c	0.07593796
226	0xbdae4882	-0.085099235
227	0x3d087faf	0.033324894
228	0x3dac3a3f	0.08409547
229	0x3cce19ea	0.025158841
230	0xbd893359	-0.06699247
231	0xbc9f29fb	-0.019429198
232	0xbd7529cb	-0.05985431
233	0xbd2322e5	-0.0398282
234	0xbd65771f	-0.056021806
235	0xbcfba442	-0.030717973
236	0x3dac652b	0.08417734
237	0xbd936de2	-0.07198693
238	0x3d302610	0.04300505
239	0xbc07935b	-0.008274878
240	0x3d65558a	0.05598978
241	0xbcafd28b	-0.0214627
242	0xbdaaac02	-0.08333589
243	0xbd33556b	-0.043782633
244	0x3d01d2e3	0.031695258
245	0xbd1eca98	-0.038767427
246	0xbd28bfdc	-0.041198596
247	0x3d5d39f6	0.054010354
248	0xbbf6eb64	-0.007535385
249	0x3b1cb18f	0.0023909544
250	0x3d291567	0.041280176
251	0x3c1f7ce4	0.009734366
252	0xbca8c13b	-0.020599952
253	0xbd818586	-0.06324296
254	0x3da3fce4	0.080072194
255	0x3d362641	0.044470076

fc2.bias f4 [64]
0	0xbd29622c	-0.04135339
1	0xbc821c33	-0.015882587
2	0xbd6f1671	-0.05837101
3	0xbcab5fab	-0.020919641
4	0xbbb67abf	-0.0055688317
5	0x3d570ef9	0.052504513
6	0xbc92d660	-0.017924488
7	0x3d323370	0.043506086
8	0xbd474e4e	-0.04865866
9	0xbd1949da	-0.037423946
10	0x3d9183f9	0.0710525
11	0xbd90d4af	-0.07071816
12	0x3e0bfcb9	0.13670625
13	0xbd21428d	-0.03937011
14	0x3db424f3	0.0879611
15	0x3cb2e04e	0.021835472
16	0x3cc1ea2a	0.023671228
17	0xbcbbc9bc	-0.022923343
18	0xbd87fa12	-0.06639494
19	0x3dbc3a82	0.09190847
20	0x3dde3b54	0.1085116
21	0xbd2fd7e3	-0.042930495
22	0xbdc593eb	-0.09647354
23	0x3d088acd	0.033335496
24	0xbd9d9e88	-0.07696253
25	0x3d6e10a4	0.05812134
26	0xbda3dd6b	-0.080012165
27	0x3daa477f	0.08314418
28	0x3d8acb40	0.06777048
29	0x3c5fbaa1	0.013655336
30	0xbd2ac889	-0.04169515
31	0xbbf00d44	-0.0073258
32	0x3d472df2	0.0486278
33	0x3ca042f6	0.01956318
34	0x3c863967	0.016384793
35	0x3cafe849	0.021473067
36	0xbd433a65	-0.04766311
37	0xbd339123	-0.043839585
38	0x3db72be8	0.08943921
39	0xbca0d872	-0.01963446
40	0xbda4cd5b	-0.08046981
41	0xbd21c39f	-0.0394932
42	0x3d854578	0.06507391
43	0xbd999d85	-0.075007476
44	0xbc29d5fd	-0.01036596
45	0x3b9dd064	0.004816102
46	0x3d4b0d42	0.04957319
47	0x3cbfcd18	0.023413226
48	0xbcde8296	-0.027161878
49	0xbd1989c7	-0.03748491
50	0x3d5fa82a	0.054603733
51	0xbd88521b	-0.066562854
52	0x3da4ead0	0.080525994
53	0xbd23ad2d	-0.039960075
54	0x3d8f154a	0.069864824
55	0xbd9481cf	-0.072513215
56	0xbbaabc60	-0.0052104443
57	0xbdab5b75	-0.083670534
58	0x3d92894d	0.07155094
59	0xbd80683d	-0.06269882
60	0x3d5b3ae8	0.053522974
61	0xbd964de3	-0.073390745
62	0x3d9d3395	0.07675854
63	0x3db8eedf	0.09029936

fc3.weight f4 [10, 64]
0	0x3d84f01b	0.06491109
1	0x3dadaa92	0.08479799
2	0x3da47f5a	0.08032103
3	0x3d036380	0.032077312
4	0x3de0ee1c	0.10982916
5	0xba6fa07f	-0.0009141042
6	0xbe2fae5e	-0.1715636
7	0x3e23a6af	0.15981553
8	0x3e017b81	0.12644769
9	0xbe04df32	-0.12975767
10	0xbe60bb8e	-0.21946546
11	0x3d908b63	0.07057836
12	0x3c728c57	0.014803967
13	0xbdebda35	-0.11516229
14	0xbe08fb81	-0.13377191
15	0xbd6d28e6	-0.057900332
16	0xbdac58c6	-0.0841537
17	0xbdf40484	-0.11914924
18	0xbda8d838	-0.082443655
19	0x3ccebbfd	0.025236124
20	0x3df00f17	0.11721628
21	0xbe23d679	-0.15999784
22	0x3c94418e	0.018097665
23	0x3cffa6c2	0.031207446
24	0x3de0a324	0.109686166
25	0xbdda7f1e	-0.10668777
26	0xbd9644c9	-0.073373385
27	0x3d59570a	0.053061523
28	0x3ca008c9	0.01953544
29	0x3cf4e844	0.02989591
30	0xbd9f9b1e	-0.07793258
31	0xbdec8a10	-0.11549771
32	0x3e2f734e	0.17133829
33	0x3d3d3bac	0.046199486
34	0x3d4d12f0	0.05006689
35	0x3e5753d5	0.21028073
36	0x3dd57651	0.10422958
37	0x3df864b4	0.121285826
38	0xbe18209f	-0.14856194
39	0x3da7a2a1	0.08185316
40	0x3def2bc7	0.11678272
41	0xbd8e50f3	-0.069490336
42	0x3c80190c	0.015636943
43	0xbe0812ec	-0.13288468
44	0xbdf0d5c4	-0.117595226
45	0x3d89fbba	0.06737466
46	0x3e2dde8d	0.16979428
47	0xbdb6029e	-0.08887218
48	0xbe34cba6	-0.1765581
49	0x3cd80a14	0.026371993
50	0x3c16936d	0.0091904225
51	0x3d8577c1	0.06516982
52	0xbdd54a47	-0.10414558
53	0x3d46308f	0.048386153
54	0xbca06d92	-0.019583497
55	0x3d8d2427	0.06891661
56	0xbe582ae3	-0.2111011
57	0x3d23c500	0.039982796
58	0x3e4ffe64	0.20311886
59	0xbd9e0698	-0.077161014
60	0xbe01ff73	-0.12695102
61	0xbd5eac0f	-0.054363307
62	0x3e52f644	0.20601755
63	0x3e810b04	0.25203717
64	0xbdaa513d	-0.08316276
65	0xbc9330e4	-0.017967649
66	0x3c0ae837	0.008478216
67	0xbe90fec6	-0.28319377
68	0x3cd6030b	0.026124498
69	0xbd20c1ba	-0.039247252
70	0x3e326eb7	0.17425047
71	0x3dafb624	0.085796624
72	0xbc4414c3	-0.011967841
73	0xbe118484	-0.14210707
74	0x3e08c28b	0.13355462
75	0x3dc6ecdb	0.09713145
76	0x3e62b0f9	0.22137822
77	0x3d1c0bd5	0.03809722
78	0xbe170755	-0.1474889
79	0x3e770137	0.24121557
80	0xbdb5b4e5	-0.088723935
81	0x3df48184	0.11938766
82	0x3dc95dc4	0.098323375
83	0x3e978b02	0.29598242
84	0x3e6cdaba	0.23130313
85	0xbde456ac	-0.11149344
86	0x3db4848e	0.08814345
87	0xbb5e58ea	-0.0033927509
88	0x3d5913a1	0.052997235
89	0xbdd1b93b	-0.10240408
90	0xbd0d7b74	-0.034541562
91	0xbd061705	-0.032736797
92	0xbe1b7def	-0.15184759
93	0xbdaec2c9	-0.08533246
94	0x3ce42ab8	0.027852401
95	0x3e3aff31	0.1826141
96	0xbe18fd3d	-0.14940353
97	0xbdaec543	-0.085337184
98	0x3c675368	0.014119007
99	0x3e2c392c	0.16818684
100	0xbd8df6cb	-0.06931838
101	0xbd87a7ff	-0.066238396
102	0xbc4d16a7	-0.012517608
103	0x3cf1487f	0.029453514
104	0xbdf9b3ba	-0.12192483
105	0x3d6fb7c6	0.05852487
106	0x3dde68a4	0.10859802
107	0x3cd74d5a	0.026282001
108	0xbe17c0b4	-0.14819604
109	0xbdef19a9	-0.11674816
110	0xbe386745	-0.18008144
111	0xbc787edd	-0.015166965
112	0xbd8577cc	-0.0651699
113	0xbd94c401	-0.07263947
114	0xbe8baf59	-0.27282217
115	0x3b74ab8b	0.0037333693
116	0xbd7eb563	-0.062184703
117	0x3dbb1b50	0.09136069
118	0xbde6a0a3	-0.11261108
119	0xbcd8fb2d	-0.026486957
120	0x3e1f9be8	0.15586817
121	0x3cef693f	0.02922499
122	0xbe74d057	-0.239076
123	0xbda727fe	-0.08161925
124	0x3d07cc0b	0.033153575
125	0x3cac376d	0.021022523
126	0x3d493ecd	0.049132157
127	0xbdb8bdf4	-0.09020606
128	0xbd962094	-0.073304325
129	0x3c952d80	0.018210173
130	0xbe0d6104	-0.1380654
131	0x3e8e1776	0.27752274
132	0xbde4372e	-0.11143337
133	0xbd318a8b	-0.043345015
134	0xbe3a99c4	-0.1822272
135	0x3dac8c2a	0.08425172
136	0x3c8f0bf3	0.017461753
137	0xbe0c29ee	-0.1368787
138	0xbd98534c	-0.074377626
139	0xbdbe44f8	-0.092904985
140	0xbe41217a	-0.18860427
141	0xbd4147ee	-0.047187738
142	0x3e0c3f32	0.13695982
143	0x3e361cee	0.17784473
144	0x3e6e3a09	0.23264326
145	0x3de7df66	0.11321907
146	0x3debdf25	0.11517171
147	0x3e51b169	0.20477833
148	0x3e265750	0.16244245
149	0xbdcf3ee8	-0.1011942
150	0xbd132146	-0.035920404
151	0xbd372f67	-0.04472294
152	0x3de1f144	0.11032346
153	0x3d64fb56	0.055903755
154	0x3def0bec	0.11672196
155	0xbddbeb9c	-0.10738298
156	0x3cd74788	0.026279226
157	0x3de3faad	0.11131797
158	0x3db3d45e	0.0878074
159	0xbd9f534e	-0.07779561
160	0xbe3a0554	-0.18166095
161	0x3d389b27	0.04506984
162	0xbe06d1ad	-0.13165922
163	0x3e3264c7	0.17421256
164	0xbd037440	-0.032093287
165	0x3c2feb59	0.010737264
166	0x3e06a426	0.13148555
167	0x3d49e3c7	0.04928949
168	0xbb733e06	-0.0037115826
169	0x3d750ba3	0.05982555
170	0x3e8c3ba1	0.27389243
171	0xbd215cb9	-0.039395068
172	0x3d19319b	0.037400823
173	0xbdc81b9b	-0.0977089
174	0xbdacd34b	-0.084387384
175	0xbd927637	-0.07151454
176	0xbde82637	-0.11335414
177	0xbd30ab94	-0.04313238
178	0xbe5536f3	-0.20821743
179	0xbdf87dfc	-0.121334046
180	0xbd14b8df	-0.03630912
181	0xbd242146	-0.040070795
182	0x3d297326	0.04136958
183	0xbd558312	-0.05212695
184	0xbbd1f2a7	-0.0064071002
185	0x3d329f17	0.04360875
186	0x3e4a64eb	0.1976506
187	0x3e21fe18	0.15819585
188	0xbe01a02b	-0.12658755
189	0x3e0c3046	0.1369029
190	0xbe6b8342	-0.2299929
191	0xbdf871b6	-0.12131064
192	0x3dc1686a	0.094437435
193	0x3cf800f2	0.030273888
194	0x3e40e709	0.18838133
195	0x3e51644f	0.20448421
196	0xbd456aeb	-0.048197668
197	0xbde543f7	-0.11194604
198	0x3e02e668	0.12783206
199	0xbe3609c4	-0.17777163
200	0xbddac99e	-0.10682987
201	0x3bd77b24	0.006575959
202	0x3e8523ee	0.26003975
203	0xbdab24e1	-0.083566435
204	0xbe6c142f	-0.23054574
205	0x3d8b7a47	0.06810432
206	0xbe14bd1d	-0.14525266
207	0xbe1af6fa	-0.15133277
208	0x3e158557	0.14601646
209	0xbcd6b5e4	-0.02620978
210	0xbdc96b73	-0.098349474
211	0x3d919a6e	0.07109533
212	0xbe91cce1	-0.28476623
213	0x3e60a08c	0.21936244
214	0xbcdd7fed	-0.027038539
215	0xbd096048	-0.033539087
216	0x3c934161	0.017975511
217	0xbd51ef43	-0.05125357
218	0xbc93b0a6	-0.018028568
219	0x3e3b4bb5	0.18290599
220	0xbcdaa8f5	-0.026691893
221	0x3dc17e71	0.09447945
222	0xbd494ecf	-0.049147423
223	0xbd7083c2	-0.058719404
224	0xbdf271f6	-0.118381426
225	0x3e0f5ff3	0.14001445
226	0xbd295aa7	-0.04134622
227	0xbe282151	-0.16418959
228	0x3dd26160	0.10272479
229	0xbde3f19b	-0.11130067
230	0xbcaa8859	-0.020816969
231	0x3dcda157	0.10040539
232	0x3d57b4c6	0.052662633
233	0x3ddbd2e5	0.10733584
234	0xbca260bc	-0.019821517
235	0xbdc82e86	-0.09774499
236	0x3c8c1957	0.017101927
237	0xbdcff8ef	-0.10154902
238	0x3e6a7b88	0.22898686
239	0xbaeaccc4	-0.0017913808
240	0xbdeeeb23	-0.116659425
241	0x3de6e7d2	0.11274685
242	0x3cf3bb06	0.029752266
243	0xbd27cc71	-0.040966455
244	0xbcb5b974	-0.022183158
245	0x3e56ec22	0.20988515
246	0x3c1f63c4	0.009728376
247	0xbdc3f4e8	-0.095681965
248	0x3cab51c8	0.02091302
249	0xbd4d0cc0	-0.050060987
250	0xbe4715fe	-0.19441983
251	0x3daaaf5a	0.08334227
252	0x3e67f500	0.22652054
253	0x3cabbfb5	0.020965436
254	0x3e23309e	0.15936515
255	0xbc5c7d0b	-0.013457547

fc3.bias f4 [10]
0	0x3d45cc3e	0.048290484
1	0xbceaddee	-0.028670277
2	0xbbf74028	-0.00754549
3	0xbdaaddeb	-0.08343109
4	0x3d9165d6	0.07099502
5	0xbe0c8809	-0.13723768
6	0xbca8a62e	-0.020587053
7	0xbcdf03af	-0.027223436
8	0x3b61f2cd	0.0034476996
9	0xbb174499	-0.002308166
